data.pth (torch, 6719 bytes, 6 tensors)

l1.weight f4 [8, 84]
0.05101317 0.2723697 0.10879513 -0.73846585 0.024383552 0.4904966 0.53743 0.30013362
0.32144156 -0.11071137 0.22984602 -0.52818465 0.8395709 0.5133436 -0.16187407 0.25999776
-0.28644228 0.39285228 0.103450835 0.40979847 -0.14641662 0.3361813 -0.08037877 -0.64235944
0.41174063 -0.16568904 -0.5992293 -0.17497283 0.4806413 0.8277569 0.09372916 0.7538724
0.68882287 0.7996549 0.43686274 -0.6095396 0.6631012 -0.37036198 0.64171505 -0.011680131
-0.45303768 0.5145718 0.4567392 0.086152524 -0.49528047 -0.016961858 0.5476998 -0.17021425
-0.15413345 0.38142 0.40667802 0.1755722 0.2135107 0.47517264 0.24340558 0.05728046
0.43909183 0.28070882 -0.85297483 0.27069178 0.3413086 0.48523232 -0.2016724 0.35897946
-0.15558137 -0.26249343 0.3108373 -0.023500146 -0.043513365 0.5303155 0.23873085 0.31886384
-0.034952994 0.68646646 0.40401375 0.37193084 0.26505727 0.08844803 -0.10058305 -0.014075947
0.55689186 0.0920961 0.047058515 0.6492184 -0.33204493 -0.1626044 0.24078047 -0.50582737
-0.087364435 -0.19966336 -0.29439148 -0.04054318 0.43278232 -0.1020234 0.7005811 0.18506253
-0.45023355 0.556292 -0.12924549 -0.124902286 0.0404322 0.5445285 0.7544845 -0.1302884
0.1737685 0.44245076 0.0064534247 -0.566561 0.35252625 0.6099819 0.40465784 -0.27807167
-0.24392614 -0.45018312 -0.038884245 -0.22930191 0.40390536 -0.15449487 -0.027284505 0.05948431
-0.24590464 0.7574478 0.30223927 0.4362398 0.20731002 0.30252916 -0.37899727 0.23165102
0.19498256 0.59072864 0.25489873 0.2971343 0.6340531 0.41771007 0.20848949 0.48279947
0.3879002 -0.18620281 -0.17336446 0.4207233 0.39290482 0.294383 0.38466272 1.0626739
0.66129774 0.43155453 -0.07846149 0.37928566 0.4093154 0.65953195 -0.21616228 0.19421393
-0.1829183 0.49665987 0.37846494 -0.513613 -0.3484499 -0.3001886 -0.06143891 -0.20252676
0.5575868 0.25048426 0.15870833 0.5267063 0.6850726 0.0484666 -0.05625119 0.18331197
0.64285326 0.4692608 0.3482103 0.84078056 0.19006182 -0.16045702 -0.3339225 0.30083308
-0.26519766 0.3202192 0.41652745 0.52509135 0.4824234 -0.16886938 0.21490768 0.09093196
0.32053155 -0.3366694 -0.4896872 -0.2816152 0.43548536 -0.1556362 0.30012748 0.7676762
-0.29398298 0.4407342 0.53478867 0.24707301 -0.26977262 0.42746848 0.214184 -0.5512119
0.074056536 -0.5512896 -0.23257065 0.51070035 -0.5512049 -0.38228676 -0.27098644 0.036759827
0.46015298 -0.07208177 0.29208234 0.43611577 0.51508075 0.49186358 -0.63244295 0.3166706
-0.43420947 -0.38819695 -0.0048587476 0.028064232 0.25228453 0.21307392 0.22506192 0.42758048
-0.07882885 -0.031589117 0.34102562 0.78604907 0.29924595 -0.39846987 0.46125293 -0.18445648
0.48470274 0.19326708 0.34602076 0.29776832 0.3395305 -0.11121424 -0.21476905 0.91500497
0.65750563 -0.31868336 0.15706922 0.2087229 -0.04589672 -0.47895277 0.44675833 -0.14673638
-0.30654866 0.36257184 0.35307002 0.07978144 0.6255209 0.26034838 0.042107206 0.5985746
00000000: 30f3 503d 0b74 8b3e fbcf de3d 190c 3dbf
00000010: 04c0 c73c 5f22 fb3e 0395 093f 1dab 993e
00000020: fd93 a43e a5bc e2bd c15c 6b3e 1c37 07bf
00000030: 1eee 563f 7c6a 033f 51c2 25be 6d1e 853e
00000040: 90a8 92be ef23 c93e 08de d33d 1bd1 d13e
00000050: 3dee 15be f51f ac3e a09d a4bd ab71 24bf
00000060: abcf d23e 63aa 29be 1767 19bf 142c 33be
00000070: 9e16 f63e e0e7 533f 13f5 bf3d c8fd 403f
00000080: b256 303f 2fb6 4c3f 79ac df3e ca0a 1cbf
00000090: 00c1 293f 16a0 bdbe 7047 243f 055e 3fbc
000000a0: 8ef4 e7be faba 033f b8d9 e93e bc70 b03d
000000b0: 6795 fdbe 98f3 8abc 0e36 0c3f a54c 2ebe
000000c0: 29d5 1dbe 7b49 c33e 1a38 d03e 33c9 333e
000000d0: 8da2 5a3e d449 f33e 503f 793e ea9e 6a3d
000000e0: a5d0 e03e 11b9 8f3e 8f5c 5abf 1d98 8a3e
000000f0: 00c0 ae3e 5f70 f83e 3683 4ebe 28cc b73e
00000100: b950 1fbe 8a65 86be 1126 9f3e 6183 c0bc
00000110: 123b 32bd c2c2 073f dc75 743e 1f42 a33e
00000120: df2a 0fbd 44bc 2f3f e4da ce3e b86d be3e
00000130: 96b5 873e 3e24 b53d 7cfe cdbd cd9e 66bc
00000140: 7790 0e3f e19c bc3d 6ec0 403d 2d33 263f
00000150: cb01 aabe c581 26be 288f 763e e77d 01bf
00000160: 20ec b2bd 8d74 4cbe 7bba 96be 9b10 26bd
00000170: a595 dd3e a5f1 d0bd 4859 333f 0881 3d3e
00000180: 0385 e6be 2769 0e3f ee58 04be c5cc ffbd
00000190: 3c9c 253d 3866 0b3f e525 413f 536a 05be
000001a0: 5ff0 313e e888 e23e 4077 d33b 240a 11bf
000001b0: 527e b43e c627 1c3f 502f cf3e 695f 8ebe
000001c0: c6c7 79be 677e e6be 1645 1fbd 1fce 6abe
000001d0: afcc ce3e e733 1ebe c183 dfbc d2a5 733d
000001e0: 6dce 7bbe 19e8 413f 1bbf 9a3e d35a df3e
000001f0: 1449 543e 1ae5 9a3e ee0b c2be ed35 6d3e
00000200: 82a9 473e fe39 173f 1682 823e fd21 983e
00000210: 4e51 223f 18de d53e 457e 553e 7e31 f73e
00000220: db9a c63e f3ab 3ebe 7486 31be 0b69 d73e
00000230: d22a c93e 5eb9 963e 83f2 c43e b305 883f
00000240: cf4a 293f b7f4 dc3e 6bb0 a0bd bb31 c23e
00000250: ca91 d13e 16d7 283f a559 5dbe 04e0 463e
00000260: ef4e 3bbe 344a fe3e 28c6 c13e 247c 03bf
00000270: 0668 b2be 52b2 99be 5ea7 7bbd 2d63 4fbe
00000280: 02be 0e3f 793f 803e 7084 223e 39d6 063f
00000290: eb60 2f3f ea84 463d a667 66bd 22b6 3b3e
000002a0: 0892 243f f442 f03e 9f48 b23e 653d 573f
000002b0: 919f 423e d84e 24be e4f7 aabe cb06 9a3e
000002c0: fdc7 87be c5f3 a33e 1643 d53e 636c 063f
000002d0: 3300 f73e 18ec 2cbe c210 5c3e 893a ba3d
000002e0: b61c a43e ee5f acbe 48b8 fabe de2f 90be
000002f0: f0f7 de3e 195f 1fbe 4faa 993e 6d86 443f
00000300: f084 96be eaa7 e13e e9e7 083f b500 7d3e
00000310: a31f 8abe 26dd da3e 0d53 5b3e 391c 0dbf
00000320: f4aa 973d 5121 0dbf 0027 6ebe 42bd 023f
00000330: c41b 0dbf 17bb c3be bcbe 8abe 7991 163d
00000340: 2c99 eb3e 9b9f 93bd d18b 953e 914a df3e
00000350: 55dc 033f 8bd5 fb3e c8e7 21bf a622 a23e
00000360: b450 debe c0c1 c6be 2136 9fbb f6e6 e53c
00000370: 702b 813e 0d30 5a3e a276 663e d4eb da3e
00000380: 0571 a1bd 9763 01bd e99a ae3e 833a 493f
00000390: c436 993e 3e04 ccbe 5829 ec3e 29e2 3cbe
000003a0: f52a f83e cee7 453e a229 b13e 1775 983e
000003b0: f1d6 ad3e 4bc4 e3bd 6bec 5bbe c43d 6a3f
000003c0: 4a52 283f 772a a3be c1d6 203e 75bb 553e
000003d0: 33fe 3bbd 4c39 f5be 82bd e43e 1042 16be
000003e0: f2f3 9cbe 04a3 b93e 98c5 b43e 7464 a33d
000003f0: 2322 203f 624c 853e 9b78 2c3d 2f3c 193f

l1.bias f4 [8]
0.9326343 0.45016798 0.55119246 0.7784419 0.47927564 0.44976082 0.7256767 0.47049704
00000000: 1fc1 6e3f 6b7c e63e f31a 0d3f f847 473f
00000010: 9e63 f53e 0d47 e63e f3c5 393f fde4 f03e

l2.weight f4 [8, 8]
-0.061198793 -0.7987538 1.112109 0.20681265 -1.1225618 1.305867 1.1966264 0.5280182
-0.13542393 -0.16257843 1.1734641 -0.18308268 1.216596 1.0654991 1.4620976 0.38627437
1.6340433 -0.33587503 -0.11933978 -0.050801754 -0.3582926 -0.26458955 0.904703 -0.6306684
0.34751162 0.21394072 -0.101774596 1.4970961 0.075509265 -0.52300096 0.20645069 -0.84304696
1.2556362 -0.28046763 -0.14042781 0.32768673 -0.0017419857 0.93077636 -0.30960163 1.164421
-0.82214844 1.1717666 0.60630053 0.7596748 0.9248762 0.0506142 0.42261988 0.29948965
0.4881026 0.96275866 0.07323057 1.2254874 0.018524615 -1.036698 0.5889894 -1.2969999
1.186197 1.1823968 -0.32994938 -1.365212 0.6643183 0.37563336 0.25026298 0.93490034
00000000: 96ab 7abd 217b 4cbf 9659 8e3f b2c6 533e
00000010: 1bb0 8fbf a626 a73f 0e2b 993f 332c 073f
00000020: 92ac 0abe f67a 26be 1234 963f 077a 3bbe
00000030: 6bb9 9b3f 4662 883f 0426 bb3f c1c5 c53e
00000040: 5528 d13f d0f7 abbe 6a68 f4bd 8015 50bd
00000050: 2172 b7be 4878 87be 9e9a 673f 7c73 21bf
00000060: 0bed b13e 4713 5b3e 336f d0bd d8a0 bf3f
00000070: 9aa4 9a3d 64e3 05bf cf67 533e edd1 57bf
00000080: b0b8 a03f 7499 8fbe 4fcc 0fbe 8ec6 a73e
00000090: 5753 e4ba 5c47 6e3f 1b84 9ebe bf0b 953f
000000a0: 5278 52bf 73fc 953f 8336 1b3f 0c7a 423f
000000b0: b0c4 6c3f d650 4f3d a261 d83e b556 993e
000000c0: 96e8 f93e 5a77 763f e9f9 953d c5dc 9c3f
000000d0: efc0 973c 85b2 84bf 02c8 163f 1804 a6bf
000000e0: 4ed5 973f c758 973f 20ef a8be 44bf aebf
000000f0: c410 2a3f 0453 c03e 7822 803e a155 6f3f

l2.bias f4 [8]
0.15586269 0.111238755 0.6314295 0.5980776 0.797639 -0.17249045 0.73979545 0.43847856
00000000: 789a 1f3e 25d1 e33d 5da5 213f 9d1b 193f
00000010: 1232 4c3f 56a1 30be 3c63 3d3f 4380 e03e

l3.weight f4 [14, 8]
0.49543506 0.31529215 -1.2081887 -0.27930617 0.20380506 0.3597089 -0.93033 -0.9287743
-1.2291142 0.011400697 0.56454194 -0.04573079 -0.614497 0.23175229 0.3079271 0.53994775
-1.2675148 0.7010007 -1.4771258 0.16407324 -1.2188638 0.6032052 0.29407182 -0.40526667
0.37840635 0.41342863 0.55950904 -0.9043439 0.31039676 -1.4899483 -0.894498 0.26020375
-1.73682 -1.0937027 1.0013133 0.9205652 0.7449692 -1.06987 0.5243719 -0.4348401
-0.10324677 -1.019401 -1.4213046 0.83500576 -0.53409296 0.3874292 0.81451917 -0.1016936
-0.62134016 -0.4281591 -0.854479 0.0015108532 -0.106012 -0.32494006 -0.4499528 -0.646033
-1.6255972 -0.41637602 0.3945675 -0.75172585 0.70036876 -0.8027391 -0.3027282 0.9451513
-0.47349465 0.49270764 -0.63683814 -0.65848875 0.036413476 0.39803 -0.73930013 0.5665247
-0.8831466 -0.09479535 -0.3657704 -0.09888036 -0.24967909 -0.51786244 -0.24724986 -0.6709134
-0.59666026 -0.62932825 -0.3790818 -0.1593865 -0.6445346 -0.66735554 -0.54475284 -0.07897389
-0.39548236 -0.6389074 -0.5482881 -0.16074336 -0.60538274 -0.4136653 -0.24288966 -0.5205451
-0.36300206 -0.16893451 -0.25307965 -0.034066793 -0.7223556 -0.58222914 -0.55611867 -0.63647395
0.26929554 0.14857085 0.48468807 0.35576862 -0.1399961 -0.531427 0.39926502 -0.7222975
00000000: aaa9 fd3e f96d a13e eda5 9abf 3801 8fbe
00000010: 46b2 503e c42b b83e 1b2a 6ebf 27c4 6dbf
00000020: 9d53 9dbf fdc9 3a3c d285 103f 3550 3bbd
00000030: ad4f 1dbf 7950 6d3e 9fa8 9d3e 043a 0a3f
00000040: ed3d a2bf c874 333f 7512 bdbf d102 283e
00000050: bb03 9cbf a86b 1a3f 9590 963e 1d7f cfbe
00000060: 7abe c13e ebac d33e fc3b 0f3f 1583 67bf
00000070: 53ec 9e3e a0b6 bebf d2fd 64bf 6d39 853e
00000080: 1e50 debf 73fe 8bbf 092b 803f 29aa 6b3f
00000090: 4db6 3e3f 80f1 88bf 3d3d 063f 5da3 debe
000000a0: 0b73 d3bd bb7b 82bf 4fed b5bf f0c2 553f
000000b0: 51ba 08bf 1f5d c63e 5484 503f bc44 d0bd
000000c0: 2610 1fbf ab37 dbbe 23bf 5abf d207 c63a
000000d0: d21c d9bd 8b5e a6be 3760 e6be 6b62 25bf
000000e0: 9213 d0bf 3d2f d5be c004 ca3e 1b71 40bf
000000f0: 5e4b 333f 4f80 4dbf 31ff 9abe 70f5 713f
00000100: e46d f2be 2d44 fc3e d307 23bf b892 28bf
00000110: 4c26 153d 97ca cb3e c642 3dbf c307 113f
00000120: e515 62bf 1124 c2bd 4246 bbbe c981 cabd
00000130: e0ab 7fbe a292 04bf 112f 7dbe fbc0 2bbf
00000140: babe 18bf a81b 21bf 0217 c2be 3736 23be
00000150: 3800 25bf d0d7 2abf ec74 0bbf 10bd a1bd
00000160: aa7c cabe 6f8f 23bf 9c5c 0cbf e899 24be
00000170: 5dfa 1abf f0cb d3be 11b8 78be 7242 05bf
00000180: 68db b9be 2bfd 2cbe a893 81be 9f89 0bbd
00000190: 4cec 38bf f80c 15bf cb5d 0ebf f5ef 22bf
000001a0: 1be1 893e f522 183e 0929 f83e 4e27 b63e
000001b0: 235b 0fbe 9a0b 08bf 776c cc3e 7de8 38bf

l3.bias f4 [14]
0.32393047 -0.039567653 -0.30535343 -0.16900042 0.6445925 0.5376531 -0.38791358 0.12655412
-0.32953197 0.04741687 -0.15234508 -0.32201952 -0.5164871 -0.2890014
00000000: 37da a53e b111 22bd 4957 9cbe 720e 2dbe
00000010: 0404 253f a2a3 093f 9c9c c6be 6797 013e
00000020: 6ab8 a8be 3138 423d 5900 1cbe bedf a4be
00000030: 8038 04bf fef7 93be
