data.pth (torch, 3071 bytes, 5 tensors)

l1.weight f4 [8, 16]
000000 c8 08 10 3d 24 3f 1a 3e d0 e7 4a 3d 7c 49 b4 3d
       0.035164624 0.15063149 0.04953748 0.088030785
000010 a8 8b db bd 6c bb 79 be 10 db 11 be 70 f5 d1 3d
       -0.10719997 -0.24387902 -0.14243722 0.102518916
000020 7a 51 35 3e f0 d9 e6 bc a0 03 34 be 14 a4 cf 3d
       0.17706862 -0.028180093 -0.17579508 0.10138717
000030 18 fe 80 3d b0 f0 4b 3e 48 85 e6 3d 08 87 74 be
       0.062984645 0.19916034 0.1125589 -0.23879635
000040 00 fe 58 3c 7c 64 dd 3d a6 7c 17 be 2e 42 53 be
       0.013244152 0.108101815 -0.14793643 -0.20630714
000050 fa 48 7a be a8 a2 e3 3d a0 cb 56 bc 34 46 64 3e
       -0.24441901 0.111150086 -0.013110071 0.22292405
000060 c4 28 30 be f0 4d 01 3e c0 8e 72 3d 12 15 5d be
       -0.17203051 0.12627387 0.05921817 -0.21590069
000070 c2 fe 07 be 0e b8 02 be 58 ca 7f 3d 48 f5 60 3d
       -0.13280776 -0.12765524 0.06244883 0.05492142
000080 38 34 53 3e 00 f2 65 bb 06 91 0d be b0 1c e7 bc
       0.20625389 -0.003508687 -0.13824853 -0.028211921
000090 4a 70 2f 3e a0 c9 d2 bc a8 64 ed bd e0 d6 e8 bc
       0.17132679 -0.025730908 -0.11591464 -0.028422773
0000a0 10 33 87 bc 9a f8 6b be 1e ed 64 be e8 d5 4d 3e
       -0.01650384 -0.23044053 -0.22356078 0.2010113
0000b0 48 95 a2 3d 20 f7 b7 3d 72 b2 00 be 00 d9 78 bb
       0.079386294 0.08982682 -0.12568071 -0.003797114
0000c0 40 28 7d bd de 9d 70 3e 78 90 fa bd c4 ec 69 be
       -0.061805964 0.23497722 -0.122345865 -0.22844225
0000d0 80 2d 2e be 78 35 4e bd 98 93 44 3d 0c 74 be 3d
       -0.17009544 -0.05034396 0.04799232 0.09299478
0000e0 28 95 32 3d 44 1e 8a 3d 22 48 21 3e 5a 9e 1d 3e
       0.043599278 0.06744054 0.15750173 0.15392438
0000f0 e8 3a c3 bd 24 b5 a9 bd 34 cd 6c 3e b0 a9 6d 3e
       -0.0953272 -0.08286503 0.23125154 0.23209262
000100 48 4e 8f bd 5e 5f 40 be b0 65 c1 3c 50 f4 ba 3d
       -0.06997353 -0.1878638 0.023608059 0.0912863
000110 1a 37 6b 3e 7c b5 01 3e c8 09 a4 bd 28 a2 c8 3d
       0.22970238 0.12666887 -0.08009678 0.09796554
000120 ee ca 47 be cc 70 00 3e 30 5d 44 bd 04 37 80 bd
       -0.19511005 0.12543029 -0.047940433 -0.062604934
000130 8a bb 6f be d4 8e e5 3d c8 b1 95 3d 60 33 a8 bc
       -0.23411384 0.11208883 0.073093 -0.02053231
000140 90 65 3a be c0 3b 35 3d a0 b3 a1 3c f0 d2 a0 bc
       -0.18202806 0.044246435 0.019738972 -0.019631833
000150 72 0c 39 3e 5c dc 10 be 20 3f 28 be 20 fc d6 3d
       0.18071154 -0.1414656 -0.1643033 0.10497308
000160 a2 6e 3e be 12 7c 4d 3e 78 79 83 bd cc 59 15 be
       -0.1859689 0.2006686 -0.06419653 -0.14585036
000170 40 8f 62 bc a4 a5 2c be 7e 8c 7a 3e 84 4d 91 bd
       -0.013828099 -0.16860062 0.24467656 -0.07094863
000180 dc 9f 78 be e4 4f 51 be 78 1b 2d 3e c0 8c 91 3d
       -0.24279732 -0.20440632 0.1690501 0.07106924
000190 58 1c 49 3e dc 9f 91 3d f6 7f 17 be 80 9c aa bc
       0.19639719 0.07110569 -0.14794907 -0.020826578
0001a0 9e 37 7c be 9e ef 37 be 72 db 37 3e 9a 18 3a be
       -0.24630591 -0.179625 0.17954805 -0.18173447
0001b0 96 6a 37 be 6a a8 3e be 30 e4 a8 bd 42 31 0c 3e
       -0.17911753 -0.18618932 -0.08246648 0.13690665
0001c0 b0 17 ca bc d4 fb a6 3d 8c 0a 4e be a0 e2 61 3d
       -0.024669498 0.08153501 -0.20121211 0.055147767
0001d0 86 8e 23 3e 62 69 1b 3e 50 be dc bc 86 d1 44 be
       0.15972337 0.15176919 -0.026946217 -0.19220552
0001e0 b0 50 a0 bd d0 ed bd 3c 86 ea 74 be 1e 3f 50 be
       -0.0782789 0.023184687 -0.23917589 -0.20336577
0001f0 08 7e 2e 3d 38 af 24 bd 78 f3 64 be 00 cc 13 bc
       0.04260066 -0.040206164 -0.22358501 -0.009020805

l1.bias f4 [8]
000000 08 8e 6d 3d ce f2 1f 3e de 43 02 be b6 ae 37 be
       0.05799678 0.15619966 -0.12721202 -0.1793774
000010 48 9b 76 3e 20 5f b1 bd 4e df 32 3e 00 d3 f1 3c
       0.24082673 -0.08660722 0.17467996 0.029519558

l2.weight f4 [8, 8]
000000 3a 7a 63 3e 22 28 36 be c0 30 35 bc 9a fd b4 be
       0.22214594 -0.17788747 -0.011058986 -0.35349733
000010 12 3a 6d 3e 7a cd aa be 6f b9 9b 3e 5d 30 a8 3e
       0.23166683 -0.3335989 0.30414912 0.32849398
000020 09 08 56 be 6d 76 b3 3e 27 79 49 be f3 4e a5 be
       -0.20901503 0.3505129 -0.19675122 -0.32286796
000030 9c e7 de 3d 94 d1 bb 3d 23 22 ac be 71 76 9f 3e
       0.1088402 0.09170833 -0.33619794 0.3114505
000040 2b 02 a6 3e d8 02 78 3d df 9e b2 be 70 2f 7c 3d
       0.3242353 0.060549587 -0.34886834 0.061568677
000050 bd 86 af 3e 16 75 2c 3e 71 1e 82 be 24 44 8d be
       0.34282485 0.1684154 -0.2541385 -0.2759105
000060 7c aa b5 3d e2 70 77 3e d0 6e 50 bd d8 d1 c8 3d
       0.08870408 0.24164155 -0.05088693 0.098056495
000070 8f bb a6 3e 72 37 72 3e 62 c8 04 3e 90 6c 61 3d
       0.3256497 0.23653963 0.12967065 0.055035174
000080 fe ef 5d 3e b8 8d 88 be 20 9c 99 3d 3c 2e b4 3d
       0.21673581 -0.26670623 0.075004816 0.08797881
000090 b4 6e d7 bd 4c 92 50 be 17 46 a9 be 08 f7 c4 bd
       -0.10519162 -0.20368308 -0.33061287 -0.0961743
0000a0 5b d9 ac 3e 09 43 19 be 87 dc 89 3e 83 b9 ac be
       0.3375958 -0.14966978 0.26926062 -0.33735284
0000b0 01 3d 86 3e b2 a5 71 3e 98 48 60 bd 3f f3 95 be
       0.26218417 0.23598364 -0.05475673 -0.29287145
0000c0 65 0a 8c 3e 4e ac 94 be 68 45 7c be 39 e4 17 be
       0.2735168 -0.29037708 -0.24635851 -0.14833154
0000d0 a0 bb c6 bc 3b 32 90 3e e4 bf db 3d d8 63 63 3d
       -0.024259388 0.28163323 0.107299596 0.05551514
0000e0 26 a6 9e be 70 fc 1e be bc 38 61 be 72 cd 3e 3e
       -0.30986136 -0.15525985 -0.21994299 0.18633059
0000f0 90 3a 47 3d 25 35 82 be af fd b4 be 74 f2 84 be
       0.048639834 -0.2543117 -0.35349795 -0.25966227

l2.bias f4 [8]
000000 fd df 80 be ac 25 85 be 78 9a 28 3d d8 41 03 3e
       -0.2517089 -0.26005304 0.041162938 0.12818086
000010 28 ac ca bd 60 aa 97 3d 9e ad a6 be 48 9c 53 3d
       -0.098961174 0.07405543 -0.32554334 0.051662713

l3.weight f4 [1, 8]
000000 bc ec 80 be 64 35 b4 bd c0 a7 8c be a6 7f 6e 3e
       -0.25180614 -0.08799246 -0.27471733 0.23290882
000010 ce 1a 7e be 10 60 81 bc 26 83 2c 3e 40 44 c7 3d
       -0.24814913 -0.015792876 0.16846904 0.097298145
